2024-01-05 13:38:44,484 ----------------------------------------------------------------------------------------------------
2024-01-05 13:38:44,485 Model: "TextClassifier(
  (decoder): Linear(in_features=256, out_features=3, bias=True)
  (dropout): Dropout(p=0.0, inplace=False)
  (locked_dropout): LockedDropout(p=0.0)
  (word_dropout): WordDropout(p=0.0)
  (loss_function): CrossEntropyLoss()
  (document_embeddings): DocumentRNNEmbeddings(
    (embeddings): StackedEmbeddings(
      (list_embedding_0): WordEmbeddings(
        'glove'
        (embedding): Embedding(400001, 100)
      )
      (list_embedding_1): TransformerWordEmbeddings(
        (model): RobertaModel(
          (embeddings): RobertaEmbeddings(
            (word_embeddings): Embedding(50265, 768, padding_idx=1)
            (position_embeddings): Embedding(514, 768, padding_idx=1)
            (token_type_embeddings): Embedding(1, 768)
            (LayerNorm): LayerNorm((768,), eps=1e-05, elementwise_affine=True)
            (dropout): Dropout(p=0.1, inplace=False)
          )
          (encoder): RobertaEncoder(
            (layer): ModuleList(
              (0): RobertaLayer(
                (attention): RobertaAttention(
                  (self): RobertaSelfAttention(
                    (query): Linear(in_features=768, out_features=768, bias=True)
                    (key): Linear(in_features=768, out_features=768, bias=True)
                    (value): Linear(in_features=768, out_features=768, bias=True)
                    (dropout): Dropout(p=0.1, inplace=False)
                  )
                  (output): RobertaSelfOutput(
                    (dense): Linear(in_features=768, out_features=768, bias=True)
                    (LayerNorm): LayerNorm((768,), eps=1e-05, elementwise_affine=True)
                    (dropout): Dropout(p=0.1, inplace=False)
                  )
                )
                (intermediate): RobertaIntermediate(
                  (dense): Linear(in_features=768, out_features=3072, bias=True)
                  (intermediate_act_fn): GELUActivation()
                )
                (output): RobertaOutput(
                  (dense): Linear(in_features=3072, out_features=768, bias=True)
                  (LayerNorm): LayerNorm((768,), eps=1e-05, elementwise_affine=True)
                  (dropout): Dropout(p=0.1, inplace=False)
                )
              )
              (1): RobertaLayer(
                (attention): RobertaAttention(
                  (self): RobertaSelfAttention(
                    (query): Linear(in_features=768, out_features=768, bias=True)
                    (key): Linear(in_features=768, out_features=768, bias=True)
                    (value): Linear(in_features=768, out_features=768, bias=True)
                    (dropout): Dropout(p=0.1, inplace=False)
                  )
                  (output): RobertaSelfOutput(
                    (dense): Linear(in_features=768, out_features=768, bias=True)
                    (LayerNorm): LayerNorm((768,), eps=1e-05, elementwise_affine=True)
                    (dropout): Dropout(p=0.1, inplace=False)
                  )
                )
                (intermediate): RobertaIntermediate(
                  (dense): Linear(in_features=768, out_features=3072, bias=True)
                  (intermediate_act_fn): GELUActivation()
                )
                (output): RobertaOutput(
                  (dense): Linear(in_features=3072, out_features=768, bias=True)
                  (LayerNorm): LayerNorm((768,), eps=1e-05, elementwise_affine=True)
                  (dropout): Dropout(p=0.1, inplace=False)
                )
              )
              (2): RobertaLayer(
                (attention): RobertaAttention(
                  (self): RobertaSelfAttention(
                    (query): Linear(in_features=768, out_features=768, bias=True)
                    (key): Linear(in_features=768, out_features=768, bias=True)
                    (value): Linear(in_features=768, out_features=768, bias=True)
                    (dropout): Dropout(p=0.1, inplace=False)
                  )
                  (output): RobertaSelfOutput(
                    (dense): Linear(in_features=768, out_features=768, bias=True)
                    (LayerNorm): LayerNorm((768,), eps=1e-05, elementwise_affine=True)
                    (dropout): Dropout(p=0.1, inplace=False)
                  )
                )
                (intermediate): RobertaIntermediate(
                  (dense): Linear(in_features=768, out_features=3072, bias=True)
                  (intermediate_act_fn): GELUActivation()
                )
                (output): RobertaOutput(
                  (dense): Linear(in_features=3072, out_features=768, bias=True)
                  (LayerNorm): LayerNorm((768,), eps=1e-05, elementwise_affine=True)
                  (dropout): Dropout(p=0.1, inplace=False)
                )
              )
              (3): RobertaLayer(
                (attention): RobertaAttention(
                  (self): RobertaSelfAttention(
                    (query): Linear(in_features=768, out_features=768, bias=True)
                    (key): Linear(in_features=768, out_features=768, bias=True)
                    (value): Linear(in_features=768, out_features=768, bias=True)
                    (dropout): Dropout(p=0.1, inplace=False)
                  )
                  (output): RobertaSelfOutput(
                    (dense): Linear(in_features=768, out_features=768, bias=True)
                    (LayerNorm): LayerNorm((768,), eps=1e-05, elementwise_affine=True)
                    (dropout): Dropout(p=0.1, inplace=False)
                  )
                )
                (intermediate): RobertaIntermediate(
                  (dense): Linear(in_features=768, out_features=3072, bias=True)
                  (intermediate_act_fn): GELUActivation()
                )
                (output): RobertaOutput(
                  (dense): Linear(in_features=3072, out_features=768, bias=True)
                  (LayerNorm): LayerNorm((768,), eps=1e-05, elementwise_affine=True)
                  (dropout): Dropout(p=0.1, inplace=False)
                )
              )
              (4): RobertaLayer(
                (attention): RobertaAttention(
                  (self): RobertaSelfAttention(
                    (query): Linear(in_features=768, out_features=768, bias=True)
                    (key): Linear(in_features=768, out_features=768, bias=True)
                    (value): Linear(in_features=768, out_features=768, bias=True)
                    (dropout): Dropout(p=0.1, inplace=False)
                  )
                  (output): RobertaSelfOutput(
                    (dense): Linear(in_features=768, out_features=768, bias=True)
                    (LayerNorm): LayerNorm((768,), eps=1e-05, elementwise_affine=True)
                    (dropout): Dropout(p=0.1, inplace=False)
                  )
                )
                (intermediate): RobertaIntermediate(
                  (dense): Linear(in_features=768, out_features=3072, bias=True)
                  (intermediate_act_fn): GELUActivation()
                )
                (output): RobertaOutput(
                  (dense): Linear(in_features=3072, out_features=768, bias=True)
                  (LayerNorm): LayerNorm((768,), eps=1e-05, elementwise_affine=True)
                  (dropout): Dropout(p=0.1, inplace=False)
                )
              )
              (5): RobertaLayer(
                (attention): RobertaAttention(
                  (self): RobertaSelfAttention(
                    (query): Linear(in_features=768, out_features=768, bias=True)
                    (key): Linear(in_features=768, out_features=768, bias=True)
                    (value): Linear(in_features=768, out_features=768, bias=True)
                    (dropout): Dropout(p=0.1, inplace=False)
                  )
                  (output): RobertaSelfOutput(
                    (dense): Linear(in_features=768, out_features=768, bias=True)
                    (LayerNorm): LayerNorm((768,), eps=1e-05, elementwise_affine=True)
                    (dropout): Dropout(p=0.1, inplace=False)
                  )
                )
                (intermediate): RobertaIntermediate(
                  (dense): Linear(in_features=768, out_features=3072, bias=True)
                  (intermediate_act_fn): GELUActivation()
                )
                (output): RobertaOutput(
                  (dense): Linear(in_features=3072, out_features=768, bias=True)
                  (LayerNorm): LayerNorm((768,), eps=1e-05, elementwise_affine=True)
                  (dropout): Dropout(p=0.1, inplace=False)
                )
              )
              (6): RobertaLayer(
                (attention): RobertaAttention(
                  (self): RobertaSelfAttention(
                    (query): Linear(in_features=768, out_features=768, bias=True)
                    (key): Linear(in_features=768, out_features=768, bias=True)
                    (value): Linear(in_features=768, out_features=768, bias=True)
                    (dropout): Dropout(p=0.1, inplace=False)
                  )
                  (output): RobertaSelfOutput(
                    (dense): Linear(in_features=768, out_features=768, bias=True)
                    (LayerNorm): LayerNorm((768,), eps=1e-05, elementwise_affine=True)
                    (dropout): Dropout(p=0.1, inplace=False)
                  )
                )
                (intermediate): RobertaIntermediate(
                  (dense): Linear(in_features=768, out_features=3072, bias=True)
                  (intermediate_act_fn): GELUActivation()
                )
                (output): RobertaOutput(
                  (dense): Linear(in_features=3072, out_features=768, bias=True)
                  (LayerNorm): LayerNorm((768,), eps=1e-05, elementwise_affine=True)
                  (dropout): Dropout(p=0.1, inplace=False)
                )
              )
              (7): RobertaLayer(
                (attention): RobertaAttention(
                  (self): RobertaSelfAttention(
                    (query): Linear(in_features=768, out_features=768, bias=True)
                    (key): Linear(in_features=768, out_features=768, bias=True)
                    (value): Linear(in_features=768, out_features=768, bias=True)
                    (dropout): Dropout(p=0.1, inplace=False)
                  )
                  (output): RobertaSelfOutput(
                    (dense): Linear(in_features=768, out_features=768, bias=True)
                    (LayerNorm): LayerNorm((768,), eps=1e-05, elementwise_affine=True)
                    (dropout): Dropout(p=0.1, inplace=False)
                  )
                )
                (intermediate): RobertaIntermediate(
                  (dense): Linear(in_features=768, out_features=3072, bias=True)
                  (intermediate_act_fn): GELUActivation()
                )
                (output): RobertaOutput(
                  (dense): Linear(in_features=3072, out_features=768, bias=True)
                  (LayerNorm): LayerNorm((768,), eps=1e-05, elementwise_affine=True)
                  (dropout): Dropout(p=0.1, inplace=False)
                )
              )
              (8): RobertaLayer(
                (attention): RobertaAttention(
                  (self): RobertaSelfAttention(
                    (query): Linear(in_features=768, out_features=768, bias=True)
                    (key): Linear(in_features=768, out_features=768, bias=True)
                    (value): Linear(in_features=768, out_features=768, bias=True)
                    (dropout): Dropout(p=0.1, inplace=False)
                  )
                  (output): RobertaSelfOutput(
                    (dense): Linear(in_features=768, out_features=768, bias=True)
                    (LayerNorm): LayerNorm((768,), eps=1e-05, elementwise_affine=True)
                    (dropout): Dropout(p=0.1, inplace=False)
                  )
                )
                (intermediate): RobertaIntermediate(
                  (dense): Linear(in_features=768, out_features=3072, bias=True)
                  (intermediate_act_fn): GELUActivation()
                )
                (output): RobertaOutput(
                  (dense): Linear(in_features=3072, out_features=768, bias=True)
                  (LayerNorm): LayerNorm((768,), eps=1e-05, elementwise_affine=True)
                  (dropout): Dropout(p=0.1, inplace=False)
                )
              )
              (9): RobertaLayer(
                (attention): RobertaAttention(
                  (self): RobertaSelfAttention(
                    (query): Linear(in_features=768, out_features=768, bias=True)
                    (key): Linear(in_features=768, out_features=768, bias=True)
                    (value): Linear(in_features=768, out_features=768, bias=True)
                    (dropout): Dropout(p=0.1, inplace=False)
                  )
                  (output): RobertaSelfOutput(
                    (dense): Linear(in_features=768, out_features=768, bias=True)
                    (LayerNorm): LayerNorm((768,), eps=1e-05, elementwise_affine=True)
                    (dropout): Dropout(p=0.1, inplace=False)
                  )
                )
                (intermediate): RobertaIntermediate(
                  (dense): Linear(in_features=768, out_features=3072, bias=True)
                  (intermediate_act_fn): GELUActivation()
                )
                (output): RobertaOutput(
                  (dense): Linear(in_features=3072, out_features=768, bias=True)
                  (LayerNorm): LayerNorm((768,), eps=1e-05, elementwise_affine=True)
                  (dropout): Dropout(p=0.1, inplace=False)
                )
              )
              (10): RobertaLayer(
                (attention): RobertaAttention(
                  (self): RobertaSelfAttention(
                    (query): Linear(in_features=768, out_features=768, bias=True)
                    (key): Linear(in_features=768, out_features=768, bias=True)
                    (value): Linear(in_features=768, out_features=768, bias=True)
                    (dropout): Dropout(p=0.1, inplace=False)
                  )
                  (output): RobertaSelfOutput(
                    (dense): Linear(in_features=768, out_features=768, bias=True)
                    (LayerNorm): LayerNorm((768,), eps=1e-05, elementwise_affine=True)
                    (dropout): Dropout(p=0.1, inplace=False)
                  )
                )
                (intermediate): RobertaIntermediate(
                  (dense): Linear(in_features=768, out_features=3072, bias=True)
                  (intermediate_act_fn): GELUActivation()
                )
                (output): RobertaOutput(
                  (dense): Linear(in_features=3072, out_features=768, bias=True)
                  (LayerNorm): LayerNorm((768,), eps=1e-05, elementwise_affine=True)
                  (dropout): Dropout(p=0.1, inplace=False)
                )
              )
              (11): RobertaLayer(
                (attention): RobertaAttention(
                  (self): RobertaSelfAttention(
                    (query): Linear(in_features=768, out_features=768, bias=True)
                    (key): Linear(in_features=768, out_features=768, bias=True)
                    (value): Linear(in_features=768, out_features=768, bias=True)
                    (dropout): Dropout(p=0.1, inplace=False)
                  )
                  (output): RobertaSelfOutput(
                    (dense): Linear(in_features=768, out_features=768, bias=True)
                    (LayerNorm): LayerNorm((768,), eps=1e-05, elementwise_affine=True)
                    (dropout): Dropout(p=0.1, inplace=False)
                  )
                )
                (intermediate): RobertaIntermediate(
                  (dense): Linear(in_features=768, out_features=3072, bias=True)
                  (intermediate_act_fn): GELUActivation()
                )
                (output): RobertaOutput(
                  (dense): Linear(in_features=3072, out_features=768, bias=True)
                  (LayerNorm): LayerNorm((768,), eps=1e-05, elementwise_affine=True)
                  (dropout): Dropout(p=0.1, inplace=False)
                )
              )
            )
          )
          (pooler): RobertaPooler(
            (dense): Linear(in_features=768, out_features=768, bias=True)
            (activation): Tanh()
          )
        )
      )
    )
    (word_reprojection_map): Linear(in_features=868, out_features=868, bias=True)
    (rnn): GRU(868, 256, batch_first=True)
    (dropout): Dropout(p=0.5, inplace=False)
  )
  (weights): None
  (weight_tensor) None
)"
2024-01-05 13:38:44,485 ----------------------------------------------------------------------------------------------------
2024-01-05 13:38:44,485 Corpus: "Corpus: 1393 train + 155 dev + 387 test sentences"
2024-01-05 13:38:44,485 ----------------------------------------------------------------------------------------------------
…
