2024-01-06 10:25:14,524 ----------------------------------------------------------------------------------------------------
2024-01-06 10:25:14,528 Model: "TextClassifier(
  (embeddings): DocumentCNNEmbeddings(
    (embeddings): StackedEmbeddings(
      (list_embedding_0): TransformerWordEmbeddings(
        (model): BertModel(
          (embeddings): BertEmbeddings(
            (word_embeddings): Embedding(30523, 768)
            (position_embeddings): Embedding(512, 768)
            (token_type_embeddings): Embedding(2, 768)
            (LayerNorm): LayerNorm((768,), eps=1e-12, elementwise_affine=True)
            (dropout): Dropout(p=0.1, inplace=False)
          )
          (encoder): BertEncoder(
            (layer): ModuleList(
              (0-11): 12 x BertLayer(
                (attention): BertAttention(
                  (self): BertSelfAttention(
                    (query): Linear(in_features=768, out_features=768, bias=True)
                    (key): Linear(in_features=768, out_features=768, bias=True)
                    (value): Linear(in_features=768, out_features=768, bias=True)
                    (dropout): Dropout(p=0.1, inplace=False)
                  )
                  (output): BertSelfOutput(
                    (dense): Linear(in_features=768, out_features=768, bias=True)
                    (LayerNorm): LayerNorm((768,), eps=1e-12, elementwise_affine=True)
                    (dropout): Dropout(p=0.1, inplace=False)
                  )
                )
                (intermediate): BertIntermediate(
                  (dense): Linear(in_features=768, out_features=3072, bias=True)
                  (intermediate_act_fn): GELUActivation()
                )
                (output): BertOutput(
                  (dense): Linear(in_features=3072, out_features=768, bias=True)
                  (LayerNorm): LayerNorm((768,), eps=1e-12, elementwise_affine=True)
                  (dropout): Dropout(p=0.1, inplace=False)
                )
              )
            )
          )
          (pooler): BertPooler(
            (dense): Linear(in_features=768, out_features=768, bias=True)
            (activation): Tanh()
          )
        )
      )
    )
    (word_reprojection_map): Linear(in_features=768, out_features=768, bias=True)
    (convs): ModuleList(
      (0): Conv1d(768, 100, kernel_size=(3,), stride=(1,))
      (1): Conv1d(768, 100, kernel_size=(4,), stride=(1,))
      (2): Conv1d(768, 100, kernel_size=(5,), stride=(1,))
    )
    (pool): AdaptiveMaxPool1d(output_size=1)
    (dropout): Dropout(p=0.5, inplace=False)
  )
  (decoder): Linear(in_features=300, out_features=2, bias=True)
  (dropout): Dropout(p=0.0, inplace=False)
  (locked_dropout): LockedDropout(p=0.0)
  (word_dropout): WordDropout(p=0.0)
  (loss_function): CrossEntropyLoss()
  (weights): None
  (weight_tensor) None
)"
2024-01-06 10:25:14,530 ----------------------------------------------------------------------------------------------------
2024-01-06 10:25:14,532 Corpus: 1393 train + 155 dev + 387 test sentences
…
